implementación-chatbot/data.pth (torch, 13809 bytes, 6 tensors)

l1.weight f4 [8, 223]
00000000: 2f15 853f de76 13bf ffe0 09bf d50a 12bf
00000010: 083f 12bf a199 aabe ca1c 7cbe 5c6c 7ebf
00000020: f00d 35bf 805b aabe 97d7 f53e 298b a03e
00000030: 9c82 ab3e 0c61 cdbe 26e9 1dbc 4b71 533b
00000040: 16af 693f 8b25 d53e a7bf 95be 572f 923e
00000050: 41b3 5abe fc43 12bf cdf5 47be dd7e 13bf
00000060: 7dfb 12bf 14e8 12bf fb2b a43d 65e9 d53d
00000070: 7610 933d 58b5 043e 4a1b a2bd d7d8 b4bd
00000080: 2095 973e 6250 f13e 1f7e 773d f3e1 db3e
00000090: cfb2 b73e a953 8fbe 66c5 a33e 60ad dabd
000000a0: d3cc 163f 40f3 83be fd73 67bd c6a4 96be
000000b0: 6198 983d 134e 963e 6b18 063f 16d6 9c3d
000000c0: 0e76 133e 83d6 b23e af08 d2be fc09 273e
000000d0: 8ae1 12bf b8df 883e 4ccc 923e 6aff 733e
000000e0: b026 9e3f 7ef6 243d a708 c3be 9985 c33d
000000f0: 0f33 023e 0190 5d3f f2ca 723f d7b3 ba3d
00000100: dab3 663e 7805 243e cc5f 0b3e 1fda 6f3f
00000110: bfef 0ebf 2ea7 c4be 8ba0 283e 7a89 f73d
00000120: c609 f13d 2aaa 403e 8afd dfbb c0d1 b33c
00000130: 3d21 3e3f 8cca 6b3e 6d69 1a3e f42a 763e
00000140: aa1d d0be d5ad 1b3e b37f d63e 3b5c f73e
00000150: 882b 023f c6e1 f33c addf 333e 7f58 2dbd
00000160: 211b 62be 1ae8 2ebf 6c1a 4e3f bdae 513d
00000170: ff1e 8d3e c1d8 12bf 10f5 2bbe 9b5e 273c
00000180: 9f26 a0bc 89d9 4d3f 3cff fa3e b08e 17be
00000190: 54e6 c63d e819 a93d aa41 663e 6b9c 873e
000001a0: 8767 12bf e44d c23d 71f3 dd3e a666 b4be
000001b0: 4a79 11bf 2f4f 4b3d a229 8ebe 0c7a bdbe
000001c0: 6278 12bf fae7 27bf 1acf 12bf f011 13bf
000001d0: fae9 383f 8290 4a3b 610a 0fbd 27a1 c3bd
000001e0: 1282 09bd 123f 043e 82af 593d db0a 67bd
000001f0: ed2e 893e 8b76 093e 4037 1d3e ddd6 4a3e
00000200: 42cb 5ebd cafb 26bf e216 9a3f 4794 45be
00000210: b871 0d3f b0f5 503b d4c2 5a3e 90e1 813f
00000220: 6e1e 09bc 67a7 763e 1270 8d3e 2dc2 803e
00000230: 2553 1dbc 376a 003e c2c7 77bd 3902 c8bc
00000240: a114 8cbb 5369 e13e 2523 263d c134 2b3f
00000250: c426 b6bd 1ee5 be3c 6a61 e43e 3fe0 d1be
00000260: 2737 353f 51a8 08bf d588 2ebe 59b2 993c
00000270: 3fee 183f 03dc fd3e fa6b 173e 1598 fbbc
00000280: 14e7 cf3a 64f8 783e c19a 483e 1508 203e
00000290: 102a 073f 419b 803d 8760 06bf 59f6 643e
000002a0: 7302 d83d e782 00be e6d2 dfbb edc5 9c3c
000002b0: 26d0 4cbe e809 85bd 0d4c d1be c495 41bd
000002c0: 8d40 473f 49a1 403e 3db5 3bbe 1b79 363e
000002d0: be05 ba3d 5317 02bd acc6 e4bd f173 d83d
000002e0: a5a7 3b3e c007 173e d9a9 393e f773 25be
000002f0: 13ce 13bf 4cbc acbc e81a 9dbe 25cd 8e3d
00000300: d5a3 253f 942b 543f d85a 88bd 4888 6fbe
00000310: b8b6 dabe bb5b c6be 08a2 b8bd 5226 4d3e
00000320: 251d 7c3e a667 9fbe 6b2d 783e 5e65 8fbd
00000330: 573f 163f 2e5c 5d3d 193b 95be 173d de3e
00000340: 7e10 623f f75d 11be a03d b23d eea0 84bd
00000350: 6715 13bf 23af 3cbd 9e2e 1cbc c684 9cbf
00000360: 5bad fa3e bf78 aabe 0910 4abd e221 4fbe
00000370: 6574 923e 1955 0fbf 02d0 88be 297f 843f
00000380: a1ec 763f baf6 babe f786 a5be 6645 a6be
00000390: a248 23bf ec38 e63e 8cfe b7be 8d1f f13e
000003a0: 165d 493f ab19 c43e 2696 55be 229d 58be
000003b0: a867 d1be 1b63 04bd c371 46bd e0d0 a23f
000003c0: 5c5d 213f b1f8 213d 6665 f93e b5b1 e6be
000003d0: e90d 993f 3f8b 173f 813b 663f 29b2 5e3f
000003e0: 3f8a 723f 8b56 28bd baed 7fbc 0c4c febd
000003f0: 78de 473f 0e9f 023f b0ab 963e 5b01 ef3e
1.039709 -0.5760325 -0.5385894 -0.5704778 -0.5712743 -0.33320335 -0.24620357 -0.99384093
-0.7072439 -0.33272934 0.48016044 0.3135617 0.33498085 -0.40113103 -0.009638106 0.0032263573
0.91282785 0.41630206 -0.29247782 0.28551742 -0.21357442 -0.57134986 -0.1952736 -0.57615453
-0.5741499 -0.57385373 0.08016201 0.10444907 0.07180874 0.12959802 -0.07915361 -0.088304214
0.2960596 0.4713164 0.060423013 0.42945823 0.35878608 -0.27993515 0.3198654 -0.106776
0.58906287 -0.25771523 -0.0565071 -0.29422587 0.07450939 0.2935644 0.5238101 0.07658021
0.14400503 0.34929284 -0.4102225 0.16312402 -0.57375395 0.26733184 0.2867149 0.23827901
1.2355556 0.040274136 -0.3809254 0.09546966 0.1271479 0.8654786 0.9484092 0.09116333
0.22529545 0.16017711 0.13610762 0.936922 -0.55834574 -0.38408798 0.16467492 0.120867684
0.11769442 0.18814912 -0.006835644 0.021950603 0.7426947 0.23026484 0.15079279 0.24039823
-0.40647632 0.1520303 0.41894302 0.48312554 0.50847673 0.029770743 0.17565794 -0.042320725
-0.22080661 -0.6832291 0.80509067 0.051192034 0.2756271 -0.5736199 -0.16792703 0.010215427
-0.019549666 0.8041006 0.49022853 -0.14800525 0.097119 0.08256894 0.22485986 0.26486525
-0.5718922 0.09487513 0.43349794 -0.35234565 -0.568257 0.049636062 -0.27766138 -0.37007177
-0.5721494 -0.65588343 -0.5734726 -0.57449245 0.7223202 0.0030908887 -0.034922007 -0.09552222
-0.03357131 0.12914684 0.053145893 -0.056406837 0.26793614 0.13424127 0.15353107 0.19808526
-0.05439306 -0.6522795 1.2038233 -0.19294845 0.55251646 0.0031884722 0.21363384 1.0146961
-0.008369071 0.24087296 0.27624565 0.25148144 -0.009602343 0.12540518 -0.06049324 -0.024415122
-0.00427492 0.44025669 0.04056086 0.6687737 -0.08894113 0.023302611 0.4460557 -0.409914
0.7078728 -0.5338183 -0.17044385 0.0187618 0.59738535 0.49581918 0.14787284 -0.030712167
0.0015861713 0.24313504 0.19590284 0.15628083 0.5279856 0.06279612 -0.5249104 0.22359599
0.10547342 -0.12549935 -0.006830561 0.019137347 -0.20001277 -0.0649603 -0.40878335 -0.04726197
0.7783287 0.18811525 -0.18330856 0.17819636 0.090831265 -0.031760525 -0.11170706 0.10568989
0.1832567 0.1474905 0.18131198 -0.16157518 -0.5773632 -0.02108588 -0.3068459 0.06972722
0.6470311 0.82878995 -0.06657952 -0.23391831 -0.42717528 -0.3874186 -0.0901528 0.2003415
0.24620493 -0.31133765 0.24236076 -0.07001756 0.586904 0.054042988 -0.2914665 0.43405983
0.88306415 -0.14196001 0.0870316 -0.064760074 -0.5745453 -0.04606546 -0.009532599 -1.2228019
0.48960385 -0.33295247 -0.0493317 -0.20227769 0.28604427 -0.55989224 -0.26721197 1.0351306
0.9645482 -0.36516362 -0.32329533 -0.32474822 -0.63782704 0.44965303 -0.3593639 0.47094384
0.7865766 0.38300833 -0.20858058 -0.21153691 -0.40899396 -0.032321077 -0.048448335 1.2719994
0.6303308 0.03954381 0.48710173 -0.45057455 1.195737 0.5919685 0.89934546 0.869906
0.94742197 -0.04109816 -0.015620643 -0.124168485 0.78073835 0.5102395 0.29427862 0.46680722

l1.bias f4 [8]
00000000: f7a5 0d3f 0f3c 893e 5f3e 203f 3f78 013f
00000010: 878e 5a3f 5f6f 593f 4826 323f b0b2 0c3f
0.5533137 0.26803634 0.6259517 0.50574106 0.8537373 0.84935564 0.6958966 0.54960155

l2.weight f4 [8, 8]
00000000: 097b 323f 0dcb 433e 2c67 3abf 86cb cfbf
00000010: 993d e13e 6cca 5e3f f6b8 b03f 5a78 f73f
00000020: 60d3 a9be df61 c53f 6035 a8bf 3ef5 fd3e
00000030: 1d04 0e3f f9f5 733f 6cef 52bf dc38 583f
00000040: 3bdd 0740 eec1 193f d508 fdbe bf92 093f
00000050: 8fd6 12bf 4cd2 343f 2d0a a23f ae94 a1bf
00000060: b3f8 a6bf 6bb5 783f 6fb8 a43f 799f 823f
00000070: 8a05 b5be ea5a 3f3e 5b85 60bf 83fc 6f3f
00000080: 4c83 e6be c3ea 23be 9e27 fc3f 5c88 ab3f
00000090: 5d42 743f 02c4 86be 9288 10be a8ca ed3e
000000a0: 1290 fb3e ce37 633f 1c15 80bf 63aa 323f
000000b0: 0d7f 5fbe db71 553f 96d9 7d3e 6239 aabf
000000c0: d5c8 2440 c522 ae3e 33e0 6d3f cd7d 813e
000000d0: d0fe 92bf 71e8 f13e f50e 1b3e 8c8b 5f3f
000000e0: 3df1 b73d 85df 60bf 0afe 303f 5db3 3a3f
000000f0: 0aea a93f 7de0 763f b1b8 7c3f 3459 cdbf
0.69718987 0.19120426 -0.7281368 -1.6233985 0.43992308 0.8702762 1.3806446 1.9333603
-0.3316908 1.5420493 -1.3141289 0.49601167 0.55475026 0.952972 -0.8239658 0.8446176
2.1228778 0.6006154 -0.494208 0.5373954 -0.5735864 0.7063339 1.2659355 -1.2623498
-1.3044647 0.9715182 1.2868785 1.0204917 -0.35355788 0.18687025 -0.87703484 0.9374468
-0.45022047 -0.16007523 1.969959 1.3400989 0.9541376 -0.26321417 -0.14114597 0.46443677
0.49133354 0.88757026 -1.0006442 0.6979124 -0.2182581 0.83376855 0.24790034 -1.3298762
2.5747578 0.34010902 0.92920226 0.2529129 -1.1484013 0.4724765 0.15142424 0.87322307
0.089815594 -0.87841064 0.6913763 0.72929937 1.3274548 0.9643629 0.98719317 -1.6042848

l2.bias f4 [8]
00000000: e9c2 3b3f f97b e43d 8a3b 603e 8737 6cbd
00000010: b89d 253f 0ea1 5cbe 016e 1a3e b527 453f
0.73344284 0.111564584 0.21897712 -0.057670143 0.64693785 -0.21545812 0.15081026 0.77013713

l3.weight f4 [10, 8]
00000000: 69ea fb3f 142b a13f e99e 1cc0 6a0b 86bf
00000010: 0723 85bf 53a9 7dc0 aa81 f0bf 5cdd 8fbf
00000020: 6b4e 4c3f b430 e13d 8afe d63e 2cc7 cebc
00000030: ffd8 09c0 fa96 68bf 5065 623f da12 2dc0
00000040: ec39 103d 40b9 9c3e fea7 1c3e de9f 42bf
00000050: 5cb8 a5be 546f be3d c93f f8bf 4fc4 253f
00000060: 5dc1 12c0 7a29 4bc0 393b d9bf b6bb c83d
00000070: a518 aa3f 610c 77c0 f5af 21c0 52bb cc3f
00000080: d16e 19c0 3cdf aabf 5a0e 863f 38bc ce3e
00000090: 988a 8a3e 89b2 62bf cbf1 673f 8471 15c0
000000a0: e972 e5bf 87a2 f33e e176 083f 18ef 8abe
000000b0: 46a3 fcbf 4311 a13f 15cb bd3e 3d5b 15c0
000000c0: 365e 543f 8a36 37c0 2788 09c0 f690 243f
000000d0: 3436 773e b47a 0fc0 6b10 933f 81f8 2ac0
000000e0: e699 013e 49c2 90bf f527 8a3f edb8 3bc0
000000f0: 7fcb 63c0 f70b 983f e7b0 973f 0afd 98be
00000100: b32d 1b3f b7e7 bbbf 93fe c63e c30c 42c0
00000110: f03e d33e 8f5b b7bf d356 8c3f 7a46 283f
00000120: 039f e8be cc63 873e 2c66 8ebf 4d30 113f
00000130: d011 053f ba83 c9be 79a8 24bf 8127 d43d
1.9680911 1.2591271 -2.447199 -1.0472233 -1.0401314 -3.9634597 -1.878957 -1.1239429
0.79807156 0.109956175 0.41991073 -0.025241457 -2.1538694 -0.9085537 0.8843584 -2.7042756
0.03521149 0.30610085 0.15298459 -0.7602519 -0.32367218 0.09298578 -1.9394466 0.6475267
-2.293052 -3.1744065 -1.6971198 0.09801428 1.3288771 -3.8601305 -2.5263646 1.5994666
-2.3973887 -1.3349376 1.047313 0.40377975 0.27058864 -0.88553673 0.9060332 -2.3350534
-1.7925693 0.47584936 0.53306395 -0.2713554 -1.9737327 1.2583393 0.37069002 -2.3336937
0.82956254 -2.8627038 -2.148935 0.6428369 0.2414177 -2.2418642 1.1489385 -2.6714175
0.12656364 -1.1309291 1.0793444 -2.933162 -3.5592954 1.1878651 1.1850861 -0.29880553
0.60616606 -1.4680089 0.388661 -3.032029 0.41258955 -1.4324816 1.0963997 0.6573254
-0.45433816 0.26443326 -1.112493 0.56714326 0.51980305 -0.39358312 -0.6431957 0.10359097

l3.bias f4 [10]
00000000: 6b93 633e 9ec9 a9be 9970 f6be 3a60 543e
00000010: 9d01 503d 3738 a4be 6408 313e cdfd 55be
00000020: f523 dfbd e4fe 203e
0.22224204 -0.33161634 -0.4813278 0.20739833 0.05078279 -0.3207414 0.17288357 -0.20897599
-0.1089553 0.15722233
